cifar10.pt (torch, 250951 bytes, 10 tensors)

conv1.weight f4 [6, 3, 5, 5]
000000 b7 52 18 3d 2c d7 9c 3d 92 36 0c be ef cf 3a 3d
       0.037188258 0.07658228 -0.13692692 0.045608457
000010 a3 19 a8 3d 21 3e c2 3a fd 46 e8 3c 26 4b 9c be
       0.08208015 0.0014819541 0.028354162 -0.30526084
000020 09 6e 01 be d8 89 8b 3e 92 ce de 3d 76 09 60 3d
       -0.12639631 0.27253604 0.10879244 0.054696523
000030 dd 85 c1 be e5 9f 63 bd 8b 1f b2 3e 37 94 6e 3d
       -0.37797442 -0.05557241 0.3478969 0.058246817
000040 ba 0c 0e be fa 13 10 be 15 46 ef bc d9 7b 4f 3e
       -0.13872042 -0.1407012 -0.029208222 0.20262088
000050 c3 ef b3 3c e8 26 c5 bd 93 2b 48 3d f4 84 c0 bd
       0.021964913 -0.096265614 0.04886968 -0.09400359
000060 76 a2 d4 3d d1 28 20 3e b7 33 a9 bc 79 cc 3c be
       0.103825495 0.1564057 -0.020654542 -0.18437375
000070 3a f9 f9 3c 5f 88 ef bb 1c 44 a4 3c e2 2a b7 3d
       0.030514348 -0.007309958 0.020052008 0.08943726
000080 60 28 91 be 7b fe 42 bc b0 fe 62 3e f8 84 18 3e
       -0.28351116 -0.011901493 0.22167468 0.14894474
000090 db 23 12 bd 33 d0 af be 80 84 26 be a6 59 d3 3e
       -0.035678726 -0.3433853 -0.16261482 0.41279334
0000a0 d5 58 a2 bc 53 b9 bb 3b 74 e7 52 bd 54 72 89 bd
       -0.019817749 0.0057288795 -0.051490262 -0.067112595
0000b0 48 46 a2 3d ee 9c bf bd 75 85 ad 3d 13 8a 74 bd
       0.07923561 -0.09356104 0.084727205 -0.05970199
0000c0 66 fc 95 bb 53 d5 f4 3b 3f d3 9d bc 5d e2 a1 bd
       -0.0045772074 0.0074717193 -0.019265769 -0.079045035
0000d0 84 e8 5b bd 4a c6 1e 3d 33 d5 43 3d 3b e5 44 3d
       -0.05368854 0.038763322 0.047810744 0.048070174
0000e0 21 e8 f4 3c b6 37 29 be e5 2f 76 bd cd 3a 0c 3e
       0.029895844 -0.16525158 -0.06010427 0.13694306
0000f0 e2 a7 8b 3d 99 41 10 3d b7 4b 38 be 1e a0 82 bd
       0.068191305 0.03521881 -0.17997633 -0.06378196
000100 fa c2 a7 3e 1d 3d 64 3d 71 42 07 be 63 f5 a6 3b
       0.32765943 0.055722345 -0.13208939 0.0050951703
000110 d5 00 1f be ec 49 5c 3e 3c 25 37 3c c3 a3 01 bd
       -0.15527661 0.21512574 0.011178311 -0.031650316
000120 37 ac 5d 3c 3c ab b3 bd d4 b1 3a 3d 83 bd 6b bd
       0.013529829 -0.08772895 0.045579746 -0.05755378
000130 e4 3b 6c bd ee 8e f9 bc 76 7a 11 bd a7 10 ef 3c
       -0.057674304 -0.030463662 -0.03551718 0.029182745
000140 6a cf 4a be 6a 09 4a be 51 d8 56 be 29 e6 2f be
       -0.19805685 -0.19730154 -0.20980956 -0.17177643
000150 a5 f5 0c 3c b9 0c 0c bd 24 bc 1f be b5 4e 19 bc
       0.008603488 -0.03419182 -0.15599114 -0.009357144
000160 1c 76 9c bd b0 cc 08 be 77 88 04 be 64 50 38 be
       -0.07639715 -0.13359332 -0.12942682 -0.17999417
000170 c8 4a e2 bd 34 0a 35 bd 09 5d fa bd 4e dd 8a 3d
       -0.1104942 -0.044199184 -0.12224776 0.06780492
000180 ee 25 dc 3d 17 60 00 bd 19 6a 99 bd 73 ec a4 bc
       0.10749422 -0.03134164 -0.0749094 -0.020132279
000190 f6 e7 f2 3d fd 78 99 3d 7a 81 89 bd 16 03 41 3d
       0.11860649 0.0749378 -0.06714149 0.047122084
0001a0 22 bf d4 bc 78 6f 06 3d 13 ab ca 3c af 60 7a 3c
       -0.025970045 0.03282115 0.024739778 0.01528184
0001b0 dc bd 02 bd 05 28 2e 3d d3 c9 44 3d d8 25 81 3d
       -0.031919345 0.042518634 0.048044037 0.06306046
0001c0 8b ad 05 bb 5e c6 cb 3d 1b 99 bd 3d 8e aa a2 bd
       -0.002039763 0.09949945 0.09257718 -0.07942687
0001d0 df 20 ce bb 54 19 04 3d d5 32 4f bd 1d 22 df 3d
       -0.0062905396 0.032250717 -0.050585587 0.108951785
0001e0 34 65 ee bd 7f 42 3d be 85 07 23 be 6e 15 43 3d
       -0.11640397 -0.18482397 -0.15920837 0.04762786
0001f0 e7 90 3f bb bb 54 26 3e 88 c3 6d 3d 4c d0 bf 3d
       -0.0029230656 0.1624326 0.0580478 0.09365901
000200 ec 8e 91 3d 1d 63 66 bd 47 6c 31 3e 66 e7 bb 3d
       0.07107338 -0.056246866 0.17326461 0.09174995
000210 ee 90 1b 3e 1e 15 9d bc e3 29 1a be 3c ff 38 bd
       0.15192005 -0.019175109 -0.15055041 -0.045165285
000220 12 e9 85 3d e8 99 2b 3e 38 7f d5 3d e5 b8 b6 3d
       0.06538595 0.1675793 0.10424656 0.089219846
000230 60 28 1e bc 3a fc 8f 3d fc 08 5e 3e 22 73 93 3d
       -0.009653181 0.0703053 0.21683115 0.07199694
000240 3d 70 2d 3e 31 3d 97 3d 24 a1 a5 bd f1 fd 38 3e
       0.16937347 0.07384718 -0.08087376 0.18065621
000250 ed d9 8e 3d e2 9c 83 3d 49 2a 86 bd f5 a4 28 3e
       0.0697516 0.064264074 -0.06551034 0.16469176
000260 35 33 84 3e 9a 91 d0 3d 44 9c f2 3c 9c 19 23 bc
       0.25820318 0.10184021 0.029615529 -0.009954836
000270 85 51 84 3e f0 c1 82 3e e8 69 ce 3b ae f8 d7 bb
       0.25843444 0.25538588 0.006299246 -0.006590924
000280 d7 48 27 3c 39 93 57 3e f9 50 14 3e 9c 45 3e 3e
       0.0102102375 0.21052255 0.14484014 0.18581241
000290 ec 17 3c 3e d9 a4 1c be 30 2a f4 3b 81 3e af 3d
       0.183685 -0.1529726 0.007451318 0.085568435
0002a0 f4 1d 0b 3e 75 b3 c2 3d d5 09 99 be 51 68 a5 be
       0.13585645 0.09506885 -0.29890314 -0.3230615
0002b0 7f ab 99 be 1b 31 4b be a3 cc 00 be 37 6d d4 3d
       -0.30013654 -0.19842951 -0.12578063 0.103723936
0002c0 49 8e 28 3e 96 08 0a 3d 53 76 ed 3c bf 37 09 be
       0.16460527 0.033699594 0.028987085 -0.13400172
0002d0 e9 e4 c6 bd 43 c1 e3 3c ec 04 58 be bf 24 23 be
       -0.0971163 0.027802115 -0.21095628 -0.15931986
0002e0 95 96 6a be b1 ea 41 3c f9 e0 1e be 2d 89 c0 bd
       -0.22909005 0.01183574 -0.15515508 -0.09401164
0002f0 7e 01 b3 bd 17 3f 34 bd 13 67 fc bd 1f 76 08 bc
       -0.08740519 -0.04400548 -0.12324347 -0.0083289435
000300 5e e0 5f 3d a2 40 e6 3c 0c 0a 0e 3e 7c 84 29 be
       0.054657333 0.028106991 0.1387102 -0.16554445
000310 ae 9d fb bd 29 63 48 be 36 3c 28 be 1a 60 12 bb
       -0.122859344 -0.19569077 -0.16429219 -0.0022335113
000320 8c d2 00 3e c5 12 91 3d c9 d7 80 bd d4 d3 ef 3d
       0.12580317 0.07083658 -0.06291158 0.11710325
000330 a7 53 2e bd ab e9 29 3e 45 69 7a bd ac 06 e5 bd
       -0.042560246 0.16593044 -0.06113555 -0.11182913
000340 cb 31 d4 bd f0 de 39 3d ee f5 51 bd 3e 4f 03 be
       -0.1036106 0.045378625 -0.051259927 -0.12823197
000350 f5 34 8a bd 78 26 19 be 02 cc ec bd 8d b6 eb 3c
       -0.06748382 -0.14956081 -0.11562349 0.02877357
000360 e1 45 1d 3e 98 2c 66 3d 46 d2 42 3e d0 3d e0 3c
       0.15358688 0.05619487 0.19025525 0.027373224
000370 0f b0 dd 3d c6 e1 e7 ba 5a 96 1b 3d f8 73 ce 3d
       0.10824596 -0.0017691187 0.037985183 0.10080713
000380 c0 45 ea 3d 8f cb 19 be f5 1b de bb 64 5e 9c 3d
       0.11439085 -0.15019058 -0.006778235 0.07635191
000390 a7 ea 03 3d c7 52 c3 bc f1 1e 03 bd 56 51 60 3d
       0.032206204 -0.023843182 -0.03201193 0.054765068
0003a0 51 2d 92 3b 2d 26 34 3d 54 f8 a7 bc d0 dd 1a 3e
       0.0044609685 0.04398172 -0.020504154 0.15123677
0003b0 2f 91 07 3e e2 3a 5f 3d e1 16 8f 3d b9 aa b2 3d
       0.13238977 0.054499514 0.06986786 0.08723969
0003c0 7a 0b 0e 3e 69 b8 96 bb 0c 99 b9 3d 02 49 94 3d
       0.13871565 -0.00459962 0.090623945 0.07240488
0003d0 70 e8 67 3b 0f 56 8d 3d 12 93 63 3c ba 27 13 bc
       0.0035386346 0.0690118 0.013890045 -0.0089816395
0003e0 a4 62 e3 bc 2b 90 12 bd 32 7b 60 be 13 df 6f bd
       -0.027756996 -0.03578202 -0.21921995 -0.05856235
0003f0 8c 9a d0 ba 95 f6 e5 3c 7d 8d 7d bc 65 9e fc bb
       -0.0015915199 0.028071681 -0.015475628 -0.007709312

conv1.bias f4 [6]
000000 a6 41 00 bd a8 e0 9e 3e 1e cd b7 bd 5e f7 36 3e
       -0.031312607 0.31030774 -0.0897467 0.178678
000010 b6 07 99 3d 68 6b 1e bd
       0.07472174 -0.03867665

conv2.weight f4 [16, 6, 5, 5]
000000 bd 38 6c 3d 28 96 41 3c 8d 7d d6 bd 92 ad 90 bd
       0.057671297 0.011815585 -0.10473166 -0.07064356
000010 4c 45 a2 3a 80 d0 12 3e ee f5 77 bd bd da 31 bd
       0.0012380271 0.14337349 -0.06053727 -0.043421496
000020 47 92 1d 3e 8e 35 76 bd 50 d4 40 be 08 c3 04 be
       0.15387832 -0.060109667 -0.18830991 -0.12965024
000030 f3 fb 7a 3e 20 de 31 3c 5c 3c a0 bd 8f ee 4b be
       0.24510173 0.010856181 -0.07824013 -0.19915222
000040 cd 80 06 3e 1e 12 32 3d 05 92 9f be 69 e1 f2 3c
       0.13135071 0.04347431 -0.31166092 0.0296485
000050 7a fe 03 3d f1 76 cd bd 2d 41 b2 be 6c 51 01 bd
       0.03222511 -0.10032452 -0.3481535 -0.03157179
000060 6a 8d 00 3d 7e d4 a5 3c 9c ad 16 3e 5b 89 8d 3d
       0.031384863 0.020242926 0.14714664 0.06910964
000070 5f f1 1e 3e 3c b3 2c 3e d7 6d 2b be 61 62 c1 bd
       0.15521763 0.16865247 -0.1674112 -0.094425924
000080 29 3d 30 bd b5 6b 03 bd fd 1e c8 3d 12 70 da bc
       -0.043027077 -0.03208514 0.097715355 -0.026664767
000090 6c 7b bf bc bf 80 b0 3d 97 ef 81 3d e6 7a b3 3c
       -0.023374282 0.08618306 0.06344526 0.021909188
0000a0 cd 06 8c bd 4d 41 c7 3d 50 90 1f 3c a4 e4 44 bd
       -0.06837235 0.09729252 0.009738997 -0.04806961
0000b0 42 9d 91 3d 07 fa a4 bb 1e 54 9f bd 7a f6 33 be
       0.07110073 -0.0050346884 -0.07779716 -0.17574492
0000c0 35 a9 a4 bc c7 c0 e5 3d 3a 54 ed 3d f0 44 cf 3c
       -0.020100215 0.1121841 0.115883306 0.025301427
0000d0 7e 89 54 bd 94 78 9a 3b 80 ed 86 3b ff be 6a 3c
       -0.051888935 0.004714081 0.0041176677 0.014327764
0000e0 0e 3a d8 3d ce b1 89 3d c9 04 93 3d b1 c2 2a be
       0.10557948 0.06723367 0.07178647 -0.16675831
0000f0 8f 8c 12 bd 5b e7 44 3e f8 65 40 3d e9 7f c0 bd
       -0.03577858 0.1922888 0.046972245 -0.09399397
000100 81 75 51 bd f6 f9 06 bd 91 f3 e8 3d 4a 34 39 be
       -0.05113745 -0.032953225 0.113745816 -0.18086353
000110 f8 56 01 bd 87 c1 04 3d b0 07 5c bd 11 30 e0 bd
       -0.03157708 0.032411125 -0.05371827 -0.10946668
000120 c8 cc f9 bd bf d8 3f 3e ed 65 e6 bc ab d3 4e bd
       -0.12197262 0.18735026 -0.028124774 -0.05049483
000130 72 be 60 bd c6 fd a9 bd 0e 68 d5 3b 47 ed fe bd
       -0.054869123 -0.083003566 0.0065126484 -0.12447601
000140 bf 7a a1 bd 76 2e 29 bc 3f 18 84 bd 5c 67 43 be
       -0.0788474 -0.010326019 -0.06449937 -0.19082397
000150 ac 6b 3c 3d 59 49 8a bd 95 24 c0 3c ef 0a 99 bd
       0.04600112 -0.06752271 0.023454944 -0.074727885
000160 2c f3 49 bd 96 3c d1 3c e2 85 91 bc ec 74 aa bd
       -0.049304172 0.025541585 -0.017764036 -0.08323082
000170 81 64 17 3c 9f 79 01 3e c9 48 84 3d c3 cf 7d 3d
       0.009240271 0.12644051 0.06459195 0.061965715
000180 b5 9d 3a 3e 68 25 61 3e d2 02 32 3e df 80 16 3d
       0.18224223 0.21986926 0.17383888 0.036743995
000190 b8 84 0d bc a8 49 97 bd 9e a8 10 3d 64 f8 05 bc
       -0.0086376 -0.07387096 0.035317056 -0.008176897
0001a0 f1 d4 8b bc b1 08 e6 3b e7 f3 5f 3d 72 1a 03 3e
       -0.017069312 0.007020079 0.054675963 0.12803057
0001b0 12 00 e2 bb f1 72 27 bd a6 63 c9 3d c0 3f 03 3d
       -0.006896981 -0.0408811 0.098334596 0.03204322
0001c0 41 47 09 be 42 f8 31 be 68 85 9f 3d ed 22 e6 3d
       -0.13406087 -0.17379859 0.07789117 0.1123713
0001d0 9e e0 33 3c e2 4e 65 bd 26 14 9f 3d 9e 8d 41 3d
       0.010978846 -0.05598343 0.07767515 0.047254197
0001e0 e3 ff 60 bd 00 5a 10 bd 52 4e 92 3d 10 8c 20 3e
       -0.054931533 -0.03524208 0.07143845 0.1567843
0001f0 2a 88 af 3d 6b ba ac 3d d0 e8 38 3c dc da 65 3c
       0.08570893 0.08433994 0.011285976 0.014029231
000200 98 7f 3e bd 87 f6 c5 bc 06 a0 f8 3d 56 6a e9 3d
       -0.0465084 -0.024165405 0.12139897 0.11397235
000210 d2 6a 98 3d 57 d2 fd bd 19 12 89 bd 47 eb af 3e
       0.07442249 -0.12393635 -0.06692905 0.3435919
000220 dc 54 6a 3e 8a e2 01 be 2f e3 11 3d ab 2a fc bd
       0.22883934 -0.12684074 0.03561705 -0.12312826
000230 a0 8a 8e 3d 6c 2f 10 3c 3a c7 44 3e 7e f0 98 3e
       0.06960034 0.008800369 0.19216624 0.2987098
000240 99 da d7 3c a9 60 5c 3d 62 76 b0 3d b5 81 7e 3e
       0.026349353 0.05380312 0.0861633 0.24854167
000250 38 a2 28 3e 01 a4 46 be 56 27 6b bd d3 52 6c bd
       0.16468132 -0.193985 -0.05741056 -0.057696175
000260 13 a4 c0 bd fd fe 74 bb c0 03 e4 3c 72 3b a5 bd
       -0.09406295 -0.003738343 0.02783382 -0.08067979
000270 a6 58 06 be 26 71 1d be ff 3f a3 3d 1b dc 30 3d
       -0.13119754 -0.15375194 0.07971191 0.04317866
000280 b6 8b c6 3d f4 d1 35 3d 4c 51 aa 3d a4 74 27 3e
       0.096946165 0.04438968 0.083162874 0.16353089
000290 37 b9 c9 3d 13 4d de 3d 3d db 3d bb a3 33 ac 3d
       0.0984978 0.108545445 -0.0028969788 0.084082864
0002a0 b4 0b 45 3d a8 b8 09 3d 30 72 1f 3c 81 a2 aa bd
       0.048106864 0.033623368 0.009731814 -0.083317764
0002b0 cd c6 82 bd 30 e3 90 bc 71 60 43 bc 56 1f 1f be
       -0.063855745 -0.017686456 -0.011924849 -0.15539297
0002c0 b8 04 2c 3c cb 23 3c bc 00 bc 09 3d 21 09 9e bc
       0.010499172 -0.011483143 0.033626556 -0.019291462
0002d0 29 7a 91 3d 0c e1 83 bb a9 1a 6a 3d 5f 44 f5 3c
       0.07103378 -0.0040246304 0.05715433 0.029939828
0002e0 ee a0 64 bd f4 0b 95 3c 95 49 c4 bc 8c 2d 40 bd
       -0.055817537 0.018194176 -0.023960868 -0.046918437
0002f0 45 ba b9 bc dc 93 63 3d bc f5 2a 3d 1e 57 df 3d
       -0.022671828 0.05556093 0.041738257 0.10905288
000300 0d 62 cb 3d a4 cb 1e 3c c0 96 9e 3c 09 f4 e4 3c
       0.09930811 0.009692106 0.019358993 0.027948396
000310 2a 0a 01 3e af 0a ba 3b 6f 2d 86 bd 7c 39 b7 bd
       0.12601534 0.005677543 -0.065516345 -0.08946511
000320 64 46 82 3d fc c0 be 3d 11 2c 2e 3e 39 67 4e 3e
       0.06361082 0.093141526 0.17008997 0.20156564
000330 4e d1 0e 3e 3b 00 a4 3d f8 8b 83 3d 9d e4 07 3e
       0.13947031 0.080078565 0.06423181 0.13270803
000340 83 b2 ba 3d 24 52 31 3d f2 03 07 be db df 29 be
       0.0911608 0.043291226 -0.13185099 -0.165893
000350 8c 3f 6c 3d b7 a5 89 3d 70 ca 71 3b 4f dc f3 3c
       0.05767779 0.06721061 0.0036894344 0.029768137
000360 78 0f 3d 3c 3d fd 33 bc a6 59 c6 bb f1 40 9a 3c
       0.011539333 -0.01098567 -0.0060531674 0.018829795
000370 0a 34 03 be 4f fe 08 be 4b fd 05 be d4 c4 d1 bd
       -0.1281282 -0.13378261 -0.13084905 -0.1024262
000380 ea 76 ea bd a9 ef f6 3c 7e 2c be 3c a6 d0 9d bd
       -0.11448462 0.030143576 0.023214575 -0.07705812
000390 83 bb 28 bd 29 9f 43 3b 34 55 7f bd 13 c9 f2 bd
       -0.04119445 0.0029849506 -0.062337115 -0.11854758
0003a0 3d f8 0f 3d 38 92 a3 3c a2 a7 f1 bc a5 1c 44 bd
       0.035148848 0.019967183 -0.029498879 -0.04787888
0003b0 ef f9 61 bb 76 58 32 bd 3a ef 44 3c da 0c 3c bc
       -0.0034481247 -0.043541394 0.012019927 -0.011477673
0003c0 2d a1 be 3d 33 b1 a8 bd a1 be 90 3c 75 c7 61 bd
       0.093080856 -0.08236923 0.017669024 -0.055121858
0003d0 94 4d 19 bd a0 6f 96 3d 05 05 f8 3d 6f 5f 50 3d
       -0.0374275 0.073455095 0.121103324 0.050872263
0003e0 8e e6 0b 3e d2 e3 c7 3d 13 4e 24 bd e6 46 a4 3b
       0.13662168 0.0976025 -0.04011352 0.0050133346
0003f0 a7 8e fa bd a3 21 8e 3d 4a f3 fd 3b 3f 67 de bc
       -0.1223424 0.069400094 0.0077499496 -0.027148841

conv2.bias f4 [16]
000000 3a 27 97 be 53 14 8c be 5f 02 c2 bd a6 82 a7 bc
       -0.29522115 -0.27359256 -0.094731085 -0.02044804
000010 b7 45 b4 3d eb 2c e8 3e 84 f6 83 be 0f d6 e4 3e
       0.088023596 0.4534677 -0.25774014 0.44694564
000020 6e d8 8a be 67 91 d6 3e 0b fb 4f be de cf da 3e
       -0.27118248 0.41907808 -0.20310609 0.42736715
000030 cc 5a 1d 3e 87 17 b7 3e 61 cd 00 bd 70 3f cf 3e
       0.15366668 0.35760137 -0.031445865 0.40478086

fc1.weight f4 [120, 400]
000000 a4 5d 0a be ef 1a b6 3d 46 34 c5 bd ed c0 ec 3c
       -0.13512284 0.08891856 -0.09629111 0.028900588
000010 3b 29 fc bd 4a 52 62 bd 44 24 e4 3d 40 54 66 3e
       -0.123125516 -0.05525426 0.111397296 0.22493076
000020 93 00 42 3e 4e f9 8b 3c f6 cf 9b bd bb b4 21 3e
       0.18945532 0.017086651 -0.07608025 0.157916
000030 fe ad ab bd 9d 02 87 bc f7 01 04 3e 05 35 1d be
       -0.08382796 -0.016480738 0.12891375 -0.15352257
000040 b2 9e 12 bd ee 94 f3 3c f9 fb 9b bb a9 a5 4f 3d
       -0.035795875 0.029734101 -0.004760262 0.050695095
000050 4f a7 6a be 99 56 1e be d0 2e 23 be 92 32 5a bd
       -0.22915386 -0.15462722 -0.15935826 -0.053270884
000060 ba 91 49 bd f1 ba 73 bd 0e 3a 43 b7 0f ee fc bc
       -0.04921124 -0.059504453 -1.1636423e-05 -0.030875234
000070 5d b1 cb 3c 13 2a 5b bc 3a b8 24 bd 06 37 a9 3d
       0.024864847 -0.0133767305 -0.040214755 0.08262448
000080 15 89 14 3e 18 7e 88 3e d9 3b 9c bd d8 9c bb 3c
       0.14505418 0.26658702 -0.076286025 0.022901937
000090 f4 e6 a4 3c e8 77 01 3d 85 f1 33 bd e4 a3 61 be
       0.020129658 0.031608492 -0.043931503 -0.22035176
0000a0 80 d6 87 bd 2f f5 01 3d 67 fa 23 3b 2b e9 27 3d
       -0.066327095 0.031727966 0.0025021078 0.04099385
0000b0 5f a8 be bd 8b 83 27 be 82 03 20 be 77 6c 10 bd
       -0.09309458 -0.16358773 -0.15626338 -0.03525969
0000c0 c1 20 c0 bd 62 30 84 bd ec ac cd bc 9d 33 f4 3a
       -0.09381247 -0.06454541 -0.02510687 0.0018631105
0000d0 a8 fb 68 3d 66 45 7d be 94 01 8f bd 9c 3f 66 bb
       0.056880623 -0.24733505 -0.06982723 -0.003513313
0000e0 f9 7f c2 bd d6 95 2b bd c3 22 69 3d 09 d4 03 bd
       -0.09497065 -0.04189094 0.056917917 -0.032184634
0000f0 c2 9f 72 3d cb 83 b2 ba ac 58 82 bd 92 c3 7c bd
       0.05923439 -0.00136196 -0.06364569 -0.061709948
000100 39 a2 e5 3d 5b 6e a0 bd 0c f8 67 3c ad d4 40 bd
       0.11212582 -0.07833549 0.01415826 -0.047077823
000110 80 d8 02 be dc 1b 8b 3c 35 dd 2f 3e 87 d0 52 bd
       -0.127779 0.016981058 0.17174228 -0.0514684
000120 56 b5 6d 3d 1a 80 a1 bd 5f 9e ad 3c c7 28 05 bd
       0.058034264 -0.078857616 0.021193681 -0.03250959
000130 e2 58 7f be 0c 9c a1 be 16 2d 99 be 7b 76 29 be
       -0.2493625 -0.31564367 -0.2991721 -0.16549103
000140 8e 37 99 3e 40 fb 81 3d 21 11 29 3d 41 00 bd bc
       0.29925197 0.0634675 0.0412761 -0.02307141
000150 9d e1 d6 3c fe 43 33 3e 99 83 01 3d 14 74 8a bd
       0.026230628 0.17506406 0.031619642 -0.067604214
000160 3d f8 00 3c 7b 3b 96 3d 55 08 3d 3c d0 62 c9 bd
       0.007871685 0.07335564 0.011537631 -0.098333
000170 d0 24 33 bd af 81 48 bd e4 1b 01 bd 32 73 e9 bd
       -0.04373628 -0.0489518 -0.03152074 -0.11398925
000180 8c fc 11 be b4 cb c9 bd c2 24 c8 bd f4 47 03 3e
       -0.14256495 -0.098533064 -0.09772636 0.12820417
000190 76 12 43 3e 62 9a 58 3e d3 81 42 3d e9 c2 28 3d
       0.19050011 0.21152642 0.04748709 0.041201506
0001a0 08 6b 93 3c a1 9b 08 3e f5 cf 6a 3e 4d 31 5b 3d
       0.017995372 0.13340618 0.22930892 0.053513814
0001b0 0d fb ae 3d aa 6b b5 3b 31 ae 74 bc 4f 72 44 3d
       0.08543978 0.005536516 -0.014934109 0.047960576
0001c0 73 e1 92 3b 56 ff 17 bd 5c fd 67 bd 5c f1 b5 be
       0.004482442 -0.03710874 -0.056638107 -0.35535705
0001d0 a5 ed 13 be 04 99 92 3a 81 d9 79 bd 54 8b da 3d
       -0.14446123 0.0011184518 -0.060998444 0.10671106
0001e0 7a 40 86 be 3f b0 1e be c8 b6 84 bd 9f 1f 58 be
       -0.26221067 -0.1549692 -0.06480175 -0.21105812
0001f0 c2 94 43 be 38 93 09 be 5e d5 8c bc 1d 52 48 bb
       -0.19099715 -0.13435066 -0.017191585 -0.0030566521
000200 cd cc 51 bd d5 e9 ab 3d 43 4b cd 3b ca 4b 08 bd
       -0.051220704 0.08394209 0.0062650754 -0.033275403
000210 b0 a5 ac bd 06 e9 c1 be f8 2d 7c 3d 57 37 29 3d
       -0.0843004 -0.37873095 0.061567277 0.04131254
000220 0d 0e 08 be 2e 4c 91 bd 87 8c 8b be a1 c0 43 3e
       -0.1328661 -0.07094608 -0.2725565 0.19116451
000230 3e 5e 5a 3b ac 87 1b bd e2 68 ea bc 2c a9 cf 3d
       0.0033320333 -0.037971184 -0.028614465 0.10139689
000240 28 96 48 3e a6 d5 24 3e 97 b0 88 3d 98 c5 85 3d
       0.1958853 0.16097125 0.06674307 0.06531829
000250 5a 6d 21 bd 12 77 f4 bd 70 cd 7b be 8e bb 01 bd
       -0.039410926 -0.11936773 -0.24590087 -0.031673007
000260 48 22 dc 3d 76 31 34 3e d3 17 20 bd 1f 3e ed bc
       0.10748726 0.17596993 -0.03908522 -0.028960286
000270 ea f2 30 3e 32 7c 88 3d ae b0 0b 3c 55 fb 4c 3a
       0.17280164 0.066643134 0.00852601 0.0007819434
000280 86 19 01 be 31 79 98 bd d2 8e ac 3b a4 ac 0f 3d
       -0.12607393 -0.074449904 0.005266049 0.035076752
000290 26 2b 6b 3d 05 6e 1f be e9 db 64 3d 31 5b 03 3e
       0.057414196 -0.15569313 0.055873785 0.12827756
0002a0 a2 6b b7 3d 85 d3 c5 bd 14 99 30 be 78 b9 f8 bd
       0.08956076 -0.09659485 -0.17245895 -0.1214475
0002b0 08 53 c1 bd 87 18 b0 bd c5 ce 45 bc b0 9a d7 3d
       -0.09439665 -0.08598428 -0.0120732235 0.10527551
0002c0 42 13 4a 3e 78 93 c3 3d a1 cb 3d bc 3b 8c 8c 3e
       0.19733909 0.09549612 -0.011584193 0.27450737
0002d0 78 a4 f5 bb 77 08 be bd d9 e3 4a be e6 50 74 bd
       -0.007496413 -0.09278958 -0.1981348 -0.059647463
0002e0 97 41 84 bd 5a e1 83 3d e8 74 54 bd c2 2d 8d bd
       -0.06457823 0.06439467 -0.051869303 -0.06893493
0002f0 15 2e e5 3c 19 14 d3 3c 73 26 b2 3d f5 17 26 be
       0.027976075 0.02576642 0.0869874 -0.16220076
000300 e4 4a 2b be d3 a1 72 3d 76 43 ca 3d 19 02 e4 3c
       -0.16727787 0.05923636 0.098761484 0.027833031
000310 2b b3 ae bc 6a 68 28 be 17 fe 7a bd 9e ef 67 3e
       -0.021325668 -0.16446081 -0.061277475 0.2265
000320 6e 06 ab 3e 3d df 18 3e cb a3 6a 3e 10 4e 01 3e
       0.33403343 0.14928909 0.22914045 0.12627435
000330 91 f6 ee bc 4a f8 74 3e d3 77 c8 3d 61 e2 f3 3d
       -0.029170306 0.2392284 0.0978848 0.11908413
000340 43 66 19 3d 29 49 2f 3d a4 77 a6 3d 65 7c e1 3d
       0.03745104 0.04279438 0.081282884 0.110100545
000350 34 00 b2 3c 1e 54 03 3c e2 71 fd 3d 44 cf 24 3e
       0.021728612 0.008015661 0.12375237 0.1609469
000360 e1 cf 4e 3d 68 06 28 3d ef 8b 35 3d a4 ae ec bd
       0.050491218 0.041021734 0.044322904 -0.115567476
000370 3e 03 54 3b f8 11 53 3e 6f 79 9d bd 51 e4 a6 be
       0.0032350565 0.20612323 -0.07689177 -0.32596067
000380 c1 73 5b be a8 6f f7 3c ef 9b e3 3c 03 85 12 be
       -0.21430875 0.030204609 0.027784316 -0.14308552
000390 83 e2 3c be 6d 0a f6 3c 14 45 53 3d 77 67 49 bc
       -0.18445782 0.030034268 0.05157955 -0.012292734
0003a0 44 e6 6f bd 92 3a b6 bc 3c ee 41 be c2 0b e3 bd
       -0.058569208 -0.022244725 -0.18938535 -0.11086227
0003b0 82 c9 37 3e 97 35 5f 3e ad 1c a5 3d 7a 6f 18 be
       0.17947963 0.21797787 0.0806211 -0.14886275
0003c0 04 6b 0b bd b1 0b 76 3d 1e f0 01 3e 76 6c 0e bd
       -0.034037605 0.060069744 0.12689254 -0.034771405
0003d0 ae e6 8c bc 02 8d aa bd 92 cc 08 be 80 df 74 bd
       -0.01719984 -0.08327676 -0.13359287 -0.05978346
0003e0 21 c1 3a be bd e4 10 3d 85 f8 a7 bc 01 94 d5 bb
       -0.18237735 0.03537439 -0.020504246 -0.0065178876
0003f0 97 8e 66 3d f9 af 82 3e d3 db 07 3d f8 d6 71 bd
       0.056288328 0.2552488 0.033168625 -0.0590429

fc1.bias f4 [120]
000000 fd 48 d3 bd 90 4d 55 3c bd d3 60 bd 78 d0 3f 3d
       -0.10316656 0.013018981 -0.05488943 0.04682967
000010 a8 39 14 bd 51 8d b2 bc cc 5f d6 3c c5 84 43 3e
       -0.036187798 -0.0217959 0.026168726 0.19093616
000020 63 93 d6 3e 86 8f c2 bc e4 cb 14 3e e4 cd c9 bc
       0.41909322 -0.023750078 0.14530903 -0.02463431
000030 c8 da 0d be 3b e7 be 3e f7 f0 fe 3d c7 15 92 bd
       -0.1385299 0.3728579 0.12448304 -0.0713306
000040 cc 2b 96 3c 5a e8 c7 bc 69 97 4a be 2c dc 87 3e
       0.01833143 -0.024402786 -0.19784321 0.26535165
000050 f1 ac 65 3d a2 6a 78 3e c6 a7 42 bd 40 01 83 3e
       0.056073133 0.24259427 -0.047523282 0.2558689
000060 be 23 31 be e0 27 ba bc 71 cb 36 3e f6 5b d6 be
       -0.17298791 -0.022724092 0.17851044 -0.41867036
000070 88 18 04 3d ad c2 8d 3e e0 88 2c bd 79 f5 4c bd
       0.032249957 0.27687588 -0.04212272 -0.05003879
000080 32 1d 8c bd 91 f8 86 bd 14 25 ef 3d c7 e2 59 3e
       -0.06841506 -0.06590379 0.11676994 0.21277915
000090 a5 9e 7b be cc c2 20 3f 0f 07 d7 3e c1 1b 1a 3e
       -0.24572237 0.62797236 0.41997573 0.1504965
0000a0 0d 1a b9 bd 85 0d 0b be d0 32 79 3e 25 b7 e4 bd
       -0.09038172 -0.13579376 0.2433579 -0.111677445
0000b0 77 e2 1a bd 28 01 91 3e cd 12 25 3e 4a e7 d1 be
       -0.03781363 0.28321195 0.16120453 -0.40996772
0000c0 ae 7e 05 bb c5 df 92 3e 6b 54 3f 3d 64 ff be bc
       -0.0020369696 0.28686348 0.046711367 -0.02331514
0000d0 d5 9a ce bc c2 cf 69 bd 4f 95 e9 bc 16 2f 0d 3f
       -0.025220314 -0.0570829 -0.028513579 0.5514997
0000e0 8b 17 64 3e 07 f4 4e 3c 2d 8f 7b bc 06 ae 43 bd
       0.22274606 0.012631423 -0.01535396 -0.047773384
0000f0 03 57 5f bd ab 59 00 3f 94 11 5b be 4d 86 a7 3e
       -0.05452634 0.5013682 -0.21393424 0.3271965
000100 46 2a 92 3d 1a f7 b2 3e a3 54 54 3e 02 63 df 3c
       0.07136969 0.3495415 0.20735411 0.02726889
000110 de 2e 00 be da 2b 02 3d 9a 3e b2 3b da ad 77 3d
       -0.12517878 0.0317801 0.0054395916 0.060468532
000120 37 9b b7 3d 10 47 4e bb 07 6c 4d bc cc 98 9b bc
       0.08965152 -0.0031475462 -0.012537963 -0.018993758
000130 f9 21 93 3d 0c 7c cc 3e be 84 fd 3e f9 1b 13 3e
       0.07184214 0.3993839 0.49515337 0.1436614
000140 20 77 68 3e 01 d4 e9 bc 9b b5 49 bd 3f ec e7 3e
       0.22701693 -0.028543474 -0.049245458 0.4529743
000150 08 eb 3c bd 97 d4 5b bd 3c 72 1a bd 74 65 d3 3e
       -0.04612258 -0.05366954 -0.0377066 0.4128834
000160 7e 40 86 3b ae 09 31 bd e6 b1 c2 bb 5d 2b 18 be
       0.0040970435 -0.043222122 -0.0059416173 -0.14860292
000170 3f 55 2a 3e 12 a9 45 bd 44 4f e4 bd aa 91 2f bc
       0.16634081 -0.04825694 -0.11147931 -0.010715881
000180 dd a9 c0 be ea ae d6 3e 2e a9 ba 3e 54 01 9e bd
       -0.37629595 0.41930324 0.364572 -0.07715097
000190 45 77 20 bd 31 10 ee 3d 2d cd 8b be 24 fb 30 be
       -0.039176244 0.11624182 -0.27304974 -0.17283303
0001a0 5f 68 f3 3d b4 bf b5 be 4f 52 44 3e 4d f9 55 bb
       0.118851416 -0.3549782 0.19172023 -0.0032649816
0001b0 fc e2 50 3e 89 08 2f bd b0 b0 cd bd 4a 81 68 3a
       0.20399088 -0.04273275 -0.10043466 0.0008869363
0001c0 a8 fd f9 3d 4e 55 17 bc b2 31 27 bd f8 f9 d0 3c
       0.12206584 -0.009236647 -0.040818878 0.02550982
0001d0 2c 57 3e bc dc 3c 0c 3e 9b 48 c7 3e c3 0b fb bc
       -0.011617463 0.13695091 0.3892258 -0.030645257

fc2.weight f4 [84, 120]
000000 29 ae 1b 3e d1 10 88 bd a6 59 18 3d 72 1b 94 3b
       0.15203156 -0.066438325 0.03719487 0.0045198733
000010 dc e2 87 bd f2 ec ce 3d 8b ae e7 3c 76 16 86 bd
       -0.06635067 0.101037875 0.02828147 -0.06547253
000020 80 aa 67 bd cb f0 84 3d d1 55 26 3e ef 2f 5f be
       -0.056559086 0.0649124 0.16243674 -0.21795629
000030 93 13 e0 3d e2 2a e0 3d 00 85 36 be 3d 05 85 bd
       0.109412335 0.10945679 -0.17824173 -0.0649514
000040 e5 cb 21 3c b6 f7 44 3d 41 99 1e 3e f3 89 d1 bd
       0.009875272 0.048087798 0.15488149 -0.1023139
000050 bb 2f bc 3c 19 53 68 be 6b e1 69 3d f8 19 92 be
       0.022971978 -0.22687949 0.05709974 -0.28535438
000060 e4 71 e3 bd 8f 27 3c 3c c2 66 00 3d 0c 43 dc 3d
       -0.11105707 0.011484041 0.031347997 0.10754976
000070 bc e3 fc 3c 31 29 02 be eb 2a 0b 3d 12 ec 9a bc
       0.030870311 -0.12711026 0.033976477 -0.018911395
000080 2c 99 89 bd d4 df 41 3c 81 08 fd 3d 91 83 91 3d
       -0.06718668 0.01183315 0.123551376 0.071051724
000090 08 de 86 3d c9 ff 89 bd 15 6a cb be 2c 47 bb 3c
       0.06585318 -0.0673824 -0.39729372 0.022861086
0000a0 ec 08 fc 3d ec 1b d5 3d 7b 1e 82 bd 22 b9 93 3d
       0.12306389 0.10405716 -0.0635347 0.07213046
0000b0 bf a9 d4 3d 08 e4 c3 bd 2a 72 56 3d 91 ab b2 3d
       0.10383939 -0.09564978 0.05235497 0.0872413
0000c0 e1 c8 0d bd 60 ac 8b 3d e0 7a 15 3d 89 dd 29 3c
       -0.0346154 0.06819987 0.036494136 0.0103677595
0000d0 2d 57 aa 3d aa e8 e8 bc 77 8b 54 bd d0 33 8c be
       0.08317409 -0.028431255 -0.051890817 -0.2738328
0000e0 2b d2 91 3e d4 b8 6f 3d 5a 2c 48 bd 22 52 8f 3d
       0.28480658 0.058525875 -0.048870422 0.069980875
0000f0 cf 9d 4c bd 57 6a 6f bc 5a 0d d7 3d 73 f9 45 be
       -0.049955186 -0.014612756 0.105005935 -0.19333439
000100 72 c6 04 be 66 ae d7 bc 39 f8 0f 3d 45 cc c2 3d
       -0.12966326 -0.026328277 0.035148833 0.095116176
000110 62 01 5d 3d b9 5e 7e bd d6 fd 75 bd 2a b9 a4 3d
       0.053956397 -0.062102053 -0.06005653 0.0804313
000120 c6 5c 31 3e 94 4e 95 3d 17 a1 a7 3d 11 6f af bb
       0.17320547 0.07290378 0.08185022 -0.0053538163
000130 24 14 51 be 33 6b 17 bd f9 6a 00 3c 65 40 40 bd
       -0.2041784 -0.036967468 0.007838004 -0.04693641
000140 48 85 45 3d ce fc c5 bd cb c8 1d 3d 86 39 7d 3c
       0.04822281 -0.09667359 0.03852157 0.015455609
000150 9d 7d 8d be e8 97 a7 bd 6a e0 ac bd 57 0f f0 3d
       -0.27634898 -0.08183271 -0.08441241 0.11721676
000160 42 40 3d bc 12 f9 c3 bd 46 ca 99 bd d5 0a 68 3c
       -0.011550965 -0.09568991 -0.07509284 0.014162739
000170 42 d5 dd 3d 80 e3 a3 3d b9 7b b6 bd da 07 ed bc
       0.10831691 0.080023766 -0.08910317 -0.028934408
000180 24 1f 3d b9 25 51 c0 3a 17 7c 5e bd b8 2d 38 3d
       -0.00018036045 0.001467262 -0.05431756 0.044965476
000190 2b 7e 42 3c 7e 0c 24 bd 2f 32 ff 3d e6 fc 91 bc
       0.011870901 -0.040050976 0.12460744 -0.017820787
0001a0 27 08 9f bd 40 08 7a 3e 6e 3c 5d 3e 3e 62 e8 3d
       -0.07765227 0.2441721 0.21605083 0.11346863
0001b0 fd a3 d1 bd c6 da bd bc 8e 95 95 3d a6 9c 26 3e
       -0.102363564 -0.023175608 0.07303916 0.16270694
0001c0 92 e7 1f 3d d6 20 be be f7 ac 21 3e 6c 6a 1e bd
       0.039039202 -0.37134427 0.15788637 -0.03867571
0001d0 89 83 86 bd 6f d3 84 3d c5 9b c2 3d c8 9b 0c 3e
       -0.06568057 0.0648564 0.09502367 0.13731301
0001e0 8b 9a 8b 3d 97 86 e5 3c 5f bf 68 3d d4 eb ca bd
       0.06816586 0.028018279 0.05682313 -0.09908262
0001f0 41 99 60 3c f2 af 3b bd dc ff 2f be f9 c5 55 be
       0.013708414 -0.04582209 -0.17187446 -0.20876302
000200 46 c8 e0 bd 00 c9 bd bd ce 0d 88 bd e3 2f 9d bd
       -0.10975699 -0.09266853 -0.06643258 -0.07675149
000210 47 a4 87 3d c9 bf 8c bd 47 53 cd 3d fa 08 9f 3c
       0.0662313 -0.068725176 0.100256495 0.01941346
000220 12 9c 20 3d d3 a4 ff 3c 45 8c 0c 3e 60 8c 24 3d
       0.03921134 0.031206524 0.13725384 0.040172935
000230 a8 7b 25 3e 30 fd 12 bd 36 86 32 bd 93 73 94 bd
       0.16160452 -0.03588599 -0.043585025 -0.072486065
000240 0f 99 c9 bd 6c b0 a0 bd f3 48 86 be 04 21 38 bd
       -0.09843647 -0.0784615 -0.2622753 -0.04495336
000250 e6 dc 76 3c 58 23 51 3d 86 81 94 bd 20 e2 e0 3c
       0.015067315 0.051059097 -0.07251267 0.027451575
000260 c0 f0 9c 3c a7 96 f1 3c d3 09 65 3d 5f 21 3d be
       0.019157767 0.029490782 0.055917572 -0.18469761
000270 81 6b d9 bd 40 98 16 3d a6 92 6c bd 25 96 6b 3b
       -0.10616208 0.03676629 -0.057757042 0.0035947647
000280 5f 9c 2a be a5 50 6a 3b a7 7f b1 bd ed e2 84 3d
       -0.16661213 0.0035753634 -0.08666926 0.06488595
000290 d9 29 d1 bc be 89 45 bd ce 32 0a bd 11 5f b7 bd
       -0.02553265 -0.048227064 -0.033739857 -0.08953679
0002a0 e7 d7 15 3e ea 23 8f bd 81 79 6c be d1 4c 0a be
       0.14633141 -0.06989272 -0.23093225 -0.13505866
0002b0 d5 7b 8b bd 73 13 fe 3c 90 c7 a2 bc 1e 3b 0b 3d
       -0.068107285 0.031015133 -0.01987055 0.033991925
0002c0 4c 1e c8 bb ec 5c be 3d c8 db 5a 3c dc 5c b5 3c
       -0.0061071273 0.09295067 0.013358064 0.022139005
0002d0 d8 6d 85 bd b0 b6 03 3c f4 48 6c bc 92 e4 e0 bc
       -0.06515092 0.008039162 -0.01442169 -0.02745274
0002e0 89 82 88 bd 23 a1 37 be 77 bd 02 be bf 31 46 bc
       -0.066655226 -0.17932563 -0.12767588 -0.012096821
0002f0 dd db 3c bd 5f 89 30 be f0 7d c2 3b 7c a1 ce 3d
       -0.046108115 -0.17239903 0.005935423 0.100893945
000300 1a a6 dc bd 08 7c 6f 3c a3 9d 73 3c 7f 60 8c 3d
       -0.10773869 0.014616974 0.0148691265 0.06854343
000310 7d 5f 2a 3d 0e af ad 3d f5 d8 4b 3c 61 83 7d bb
       0.04159497 0.08480655 0.012441863 -0.0038683044
000320 69 ba e7 bc f4 88 82 bc 3c 9f 93 bc d4 bb 1a 3d
       -0.02828713 -0.015934445 -0.018020265 0.037776783
000330 98 de a8 bd bb 5e 2b 3d ce dd 97 3d bc 27 71 bd
       -0.082455814 0.04183839 0.07415353 -0.058875784
000340 ff 03 90 bd 71 15 0e bd ee f7 b6 3d 59 ca 2e bd
       -0.07032012 -0.034688417 0.089340076 -0.042673443
000350 3e 1e b2 bd 30 5a 51 3d 72 79 bc 3c ac cf c8 bc
       -0.086971745 0.0511114 0.023007128 -0.024513088
000360 d9 4c c9 3c b2 ff cf 3d fa 80 9c bd ed 6f 18 3d
       0.024572777 0.10156192 -0.07641788 0.037216116
000370 41 03 56 bd 90 f2 5b bd e0 84 92 be fa 34 75 bd
       -0.052249197 -0.053698123 -0.28617 -0.059864976
000380 e7 77 ad bd ab 30 0d be 76 63 9c 3c bb 50 59 3d
       -0.08470135 -0.13788097 0.019090395 0.053055506
000390 16 cc 1a be ce 09 8a 3d 3c 7d d0 3d d7 85 22 be
       -0.15116915 0.06740151 0.101801366 -0.15871368
0003a0 47 7f 82 be 27 92 71 bd 4a b4 f0 bd 0c 71 9b 3d
       -0.2548773 -0.058977272 -0.117531374 0.07589921
0003b0 48 00 83 3d dd 9f c0 3b c0 14 d0 3d b7 f3 aa bd
       0.06396538 0.005878432 0.10160208 -0.08347266
0003c0 8e 87 ca 3c ca f1 65 3d 24 62 18 3d 40 42 3c bb
       0.02472284 0.05613879 0.03720297 -0.0028726012
0003d0 db 29 8a bd c8 b1 b3 3d f5 6c 29 bd 6a cf 91 bd
       -0.067462645 0.087741435 -0.041363675 -0.07119639
0003e0 97 8c ae bd b9 71 c0 3d b7 40 ed 3c a9 3e ff 3c
       -0.08522909 0.09396691 0.028961523 0.031157808
0003f0 b1 2a 8c bd 1a cc 15 bd ed 36 bf 3c 04 1e 8a 3d
       -0.0684408 -0.0365716 0.02334162 0.06744006

fc2.bias f4 [84]
000000 d7 4f b0 be bc 12 cd bc 0a 52 c2 bd 2c 5f 63 3d
       -0.34435913 -0.025033347 -0.09488304 0.055510685
000010 9b 68 27 3e 33 6f 8f 3e d8 96 57 bd 33 9f 68 3e
       0.16348498 0.28014526 -0.05263409 0.2271698
000020 58 95 92 ba 96 3a a4 3e b4 9e e9 bd a3 84 06 be
       -0.0011183424 0.32075948 -0.11407223 -0.13136534
000030 c9 1a 09 3d 45 c2 d1 3d 8d e4 5b bd 7d 0e 78 bd
       0.03347281 0.10242132 -0.05368476 -0.060560692
000040 f2 bc d5 3d 05 1e 45 3e 52 46 2b bd 97 1d 02 be
       0.10436429 0.19249733 -0.04181511 -0.127066
000050 0b b6 28 3d f9 ac 88 3b 6a b1 5f bd 53 22 fc bd
       0.041189235 0.0041710106 -0.054612555 -0.12311234
000060 e8 9e 84 3e d1 a1 3f 3c 81 31 49 be 39 43 ff 3d
       0.25902486 0.011696295 -0.1964779 0.124639936
000070 60 f9 c2 3e 5e 41 27 3d f8 7b 0b 3e 6e 35 cd bd
       0.38080883 0.040833823 0.13621509 -0.100199565
000080 95 49 3c 3e eb 52 af 3e fb 5f 53 bd 20 cb a7 3d
       0.18387444 0.3424295 -0.051605206 0.0819304
000090 53 c0 ff bd 22 88 4b bd 8a 4a 23 3e 89 99 f2 3b
       -0.12487855 -0.049690373 0.15946403 0.0074035567
0000a0 e4 5d 05 be e1 5f 10 3e a0 72 97 3e 86 d2 4e bd
       -0.13024098 0.14099075 0.2957964 -0.05049374
0000b0 95 04 ae 3e 60 98 b0 bc ed e4 a7 3e 90 8e ee bc
       0.3398787 -0.021557033 0.32791844 -0.029120713
0000c0 0a 79 0d be 58 2c e8 3d 30 6d 89 3e 8b 72 94 3d
       -0.13815704 0.11336583 0.26841116 0.0724841
0000d0 71 f1 98 3e 7d b9 f7 bd 50 6b 1a 3f 2e d0 ec bd
       0.29871705 -0.12095926 0.60319996 -0.115631446
0000e0 b0 47 58 3e c7 93 17 bd 9c 6a a1 be 6e 47 d1 3e
       0.21121097 -0.037006166 -0.3152665 0.4087481
0000f0 e9 48 22 be 54 a9 24 be 0e c1 fa bd ed e8 75 3d
       -0.15848126 -0.16080219 -0.122438535 0.06003659
000100 45 0a 72 3e d6 19 0d 3f 19 6b 03 3e 6b 76 8d bd
       0.2363673 0.5511755 0.12833823 -0.06907352
000110 20 09 e8 3e 44 57 4b 3c 6b 2d d9 bd 86 a5 f7 bd
       0.45319462 0.012410942 -0.10604366 -0.12092118
000120 74 a6 cb 3e 84 97 0f 3e 84 37 be bd fd 0e db 3d
       0.3977543 0.14022642 -0.092879325 0.10696218
000130 f3 df e5 3e 51 ed 8c bd a2 9b 1d 3e 91 08 ab 3e
       0.44897422 -0.06881202 0.153914 0.33404973
000140 d4 09 5d 3d f5 07 c8 bc dc 20 97 3d 56 cf c5 be
       0.05396445 -0.024417857 0.07379314 -0.38634747

fc3.weight f4 [10, 84]
000000 2c 2c dc 3d 13 df f2 bd 88 72 2a bd 9e 6d 8a 3e
       0.107506126 -0.11858954 -0.04161313 0.27036756
000010 8f ce 38 3b 98 de 3d 3d 74 a2 96 bc c5 ba 4c 3e
       0.002819929 0.04635486 -0.01838801 0.19993122
000020 d3 c6 51 3c e6 42 22 3e f8 92 dd 3d 5f 92 0e 3d
       0.012803751 0.15845832 0.10819048 0.03480756
000030 43 dd 06 3e 81 b8 d2 be 53 4b 1f bc 0d 18 05 be
       0.13170342 -0.4115639 -0.009722549 -0.12997456
000040 38 a5 0b bc 86 71 c7 3d d3 c3 93 bd 50 b8 0a be
       -0.008523278 0.0973845 -0.07215085 -0.13546872
000050 9c c3 8a be a0 2e bc bd c1 0f b9 bd cf f1 6d be
       -0.27102363 -0.091885805 -0.09036208 -0.23236774
000060 2b c7 81 be ff dd 97 bd 9d cf fc bc 4e bd c9 bd
       -0.25347266 -0.07415389 -0.030860716 -0.0985056
000070 8b db 12 3e 18 80 57 be ce 74 13 be e3 12 3c be
       0.14341561 -0.21044958 -0.14400026 -0.1836658
000080 52 94 a5 bd f2 e4 76 be 5c ad 17 be 4e d0 b0 3d
       -0.080849305 -0.24110773 -0.14812225 0.08633481
000090 1b 10 cd bd 79 2e 6c 3d cc b3 51 3e 26 4d 1f bd
       -0.100128375 0.057661507 0.20478743 -0.038891934
0000a0 98 c7 e3 bd 71 03 3c bd ac c0 0a 3e 7a 24 b2 bb
       -0.11122054 -0.04590172 0.13550061 -0.0054364773
0000b0 50 c5 42 be 43 90 e0 bc 6e 4f 81 be 12 52 23 3e
       -0.19020581 -0.02741254 -0.25255913 0.15949276
0000c0 22 8f 31 3e 0a b6 1f 3e 62 a1 5e be a0 d8 0f 3e
       0.17339757 0.15596786 -0.2174125 0.1404748
0000d0 ce 6f 46 3e a2 d8 ba bd f4 88 87 be aa 42 1a be
       0.19378588 -0.09123351 -0.26471674 -0.15064493
0000e0 31 c7 a2 be 96 d5 86 bd 36 43 2f 3e 95 e4 d4 bd
       -0.31792596 -0.06583707 0.17115483 -0.10395161
0000f0 30 09 29 3d b9 90 a9 be 5a fc ba bb 71 8d 5d 3e
       0.041268528 -0.33118227 -0.005706352 0.21635987
000100 e0 a7 e2 be 46 94 bc be de ed 76 be 50 42 2d bd
       -0.44268703 -0.36831874 -0.24114177 -0.04229957
000110 f2 71 a1 be e0 dc b7 bd 70 33 fa 3c 47 2e 2f 3d
       -0.31532246 -0.089776754 0.030542105 0.042768743
000120 6e 8d e6 bd 16 b6 c9 bd 26 84 a1 bc 94 d0 a5 3d
       -0.11257444 -0.09849183 -0.019716334 0.08096424
000130 57 20 af 3d 55 5e 98 3e 6d 32 98 3c 96 75 05 3d
       0.0855109 0.2975947 0.018578732 0.03258284
000140 85 53 73 bd b5 4d 86 3e b9 89 68 3d 27 58 29 3e
       -0.059405822 0.2623116 0.056771968 0.16537534
000150 ae b9 02 3e fc d2 a2 3c 8f 23 84 bd d1 6b 6f be
       0.12766144 0.019875996 -0.06452095 -0.23380972
000160 43 3c 8a be 25 2d 0e be 7c 4f be 3e e2 53 71 bc
       -0.269991 -0.13884409 0.37170017 -0.014729472
000170 2f 7a 52 3e 8a f5 f1 bc db 30 cd 3e 5b 2f b8 bc
       0.20554422 -0.029536027 0.40076336 -0.022483518
000180 f8 eb a1 3d 7f 17 3a 3e b6 ac d5 bd 15 6d 57 3e
       0.079063356 0.18173026 -0.104333326 0.21037705
000190 3e d5 0e bd a8 0c c2 be 31 5f 82 3d 9a 18 ab bc
       -0.034871332 -0.3790028 0.063658126 -0.020885754
0001a0 17 00 26 3e 08 59 24 bc 3d f0 84 3d ac a6 4a 3e
       0.16210972 -0.010030992 0.06491134 0.19790143
0001b0 08 d3 3c 3d c5 41 34 3b 3d 0d 77 be 0c de c5 3c
       0.046099693 0.0027505022 -0.24126144 0.024153732
0001c0 16 90 96 bd 50 3e 03 3e 89 ce a9 3d 6d b0 98 be
       -0.07351701 0.12816739 0.082913466 -0.29822102
0001d0 a6 51 5d be 60 07 e9 3d ee f7 26 bc b6 93 23 3e
       -0.21613178 0.1137836 -0.010190947 0.15974316
0001e0 4a 9d 47 3d ce 6a e1 3c 67 96 05 bb 74 74 76 3e
       0.048733987 0.027516749 -0.0020383836 0.24067861
0001f0 bb 41 ce 3d 31 ef 18 3e e3 c4 c9 be 13 a6 59 bd
       0.10071131 0.14934994 -0.39408025 -0.053136896
000200 3b 56 45 3d 5b 60 ef bd 12 2e fe bd 39 d1 5b be
       0.04817794 -0.116883 -0.12411131 -0.21466531
000210 8c 93 65 be 53 6d 90 3c 56 2d 37 be 3e 13 07 3e
       -0.22419566 0.017630255 -0.17888388 0.13190934
000220 7a f5 c7 bb 44 83 bd 3c 07 e9 0d bf fa ba ce bc
       -0.006102261 0.023133881 -0.55433697 -0.025235642
000230 34 72 c7 3d f3 7c 59 3d 37 5a 28 3e 79 10 92 be
       0.097385794 0.053097676 0.16440664 -0.28528193
000240 bb 00 4a bc 62 2b 45 3e 92 21 d0 3c 71 c6 12 be
       -0.012329276 0.1925483 0.025406633 -0.14333512
000250 47 33 d2 3d 68 d6 78 be f9 6c d9 be af 08 2d bc
       0.102636866 -0.2430054 -0.42465952 -0.010561152
000260 1b 17 dc bd b9 dd 8a 3e 6f e5 13 3c 3b e0 6e bd
       -0.107465945 0.27122286 0.009026869 -0.05831931
000270 6e 4c 8c be 2e 58 55 bd 44 b5 8e bc ef 3a 5b be
       -0.2740206 -0.052086048 -0.017420419 -0.214092
000280 b6 c0 78 be 68 e0 c7 3c 65 27 16 3e b2 f7 a9 be
       -0.24292263 0.024398997 0.14663465 -0.3319679
000290 22 8c 9f bd ba 91 e5 ba 6a 21 eb 3d 10 39 c1 3d
       -0.077904 -0.0017514743 0.114809826 0.09434712
0002a0 44 b0 46 3e 6b 1c 29 be 88 04 e0 bd 37 d9 01 3e
       0.19403177 -0.16514747 -0.10938364 0.12680517
0002b0 a0 81 95 bd 68 f7 9b be a8 0e 2a be 9e a0 84 3c
       -0.07300115 -0.30462193 -0.16607153 0.01618987
0002c0 04 a1 29 be 9d 5a 64 be 6d e9 89 bd 73 1b cf bd
       -0.16565329 -0.22300191 -0.067339756 -0.101126574
0002d0 bd a1 fd bd 53 37 88 3d 3b f4 8e bd 99 af 3e bc
       -0.12384365 0.06651177 -0.06980177 -0.011638545
0002e0 66 03 95 bd fe fd 64 3d dc f9 9d 3d 77 50 a5 bc
       -0.07276039 0.05590629 0.077136725 -0.02017997
0002f0 2d 14 31 be d6 c1 37 3e 81 14 91 3e 69 e0 97 bd
       -0.17292853 0.17945036 0.28335956 -0.0741585
000300 34 71 92 bd 85 b9 aa 3c 23 17 eb 3e c4 74 c8 be
       -0.07150498 0.020840416 0.4591609 -0.39151585
000310 bf 09 3e 3e 50 41 24 be ba e8 1a 3c 54 bf 34 be
       0.18558405 -0.1604054 0.0094549 -0.17651111
000320 5f 05 3a 3a 5b be 8d bd 15 88 45 3e 04 ef 1a be
       0.0007096137 -0.06921073 0.19290192 -0.1513024
000330 e0 2c 6c be e1 53 28 bd da 6b e0 3d a1 3e 8f be
       -0.23063993 -0.04109562 0.10958071 -0.2797747
000340 a1 c0 14 bd b5 1d 79 be 80 ce 39 be 20 08 76 3e
       -0.036316518 -0.24327739 -0.1814518 0.24026537
000350 81 1f da 3d 0c 91 00 3e 77 ec 43 3d 44 fe b0 3e
       0.1065054 0.12555331 0.047832932 0.3456899
000360 8b 2d bf 3e 08 66 92 3d 1e 91 d0 bd 54 b9 01 be
       0.37339434 0.07148367 -0.10183929 -0.12668353
000370 75 a0 57 be 56 9f 9a 3d 18 03 73 3e fc d8 d2 3c
       -0.21057303 0.07549922 0.23731649 0.025738232
000380 84 ef 2b 3d be 99 d8 bd bf cf 99 3d a3 29 8b 3b
       0.041976467 -0.10576199 0.075103275 0.004246907
000390 b5 45 74 3d 04 3d 11 be 4e 87 4c 3d b4 d4 2b be
       0.05963679 -0.14183432 0.049933724 -0.16780359
0003a0 84 2b f8 bd ef 7e a0 3d 8a 64 22 3e 52 52 dc bd
       -0.12117675 0.07836711 0.15858665 -0.10757889
0003b0 d3 f2 b6 3d c2 36 b2 bd fc a2 5e bd 16 5f f6 bc
       0.08933034 -0.087018505 -0.054354653 -0.030074637
0003c0 a8 1b 54 3d b4 1a 2c 3e 92 fb b3 3d c8 79 a6 3d
       0.051784188 0.16807061 0.087882176 0.08128697
0003d0 54 9f 49 be e2 63 f0 3d ee db 92 3c 6d 1b 32 3e
       -0.19689685 0.11737801 0.017927136 0.17393275
0003e0 73 d0 83 3d 46 32 0c be d0 10 a0 bd e3 4b 98 3d
       0.06436243 -0.13691053 -0.07815707 0.07436349
0003f0 a4 20 e5 3d 25 53 23 be 9e 68 76 3c 7f ef 66 be
       0.11187866 -0.15949686 0.015039591 -0.22552298

fc3.bias f4 [10]
000000 1b 02 8a be af e5 8d be 4e a0 8c bd 22 e2 21 3e
       -0.2695473 -0.27714297 -0.06866513 0.15808919
000010 38 6c cb 3e e2 cc c2 bd 8f 2e 5c 3e 64 4b 44 be
       0.39731002 -0.095117345 0.21502136 -0.19169384
000020 9b 5c 08 3e 72 ef a6 3d
       0.13316576 0.08151139
